…
OAMXNjLnJn","outputId":"44cbc89a-f943-4c84-c0fc-0559ea2ac686"},"outputs":[{"output_type":"stream","name":"stdout","text":["Downloading data from https://storage.googleapis.com/tensorflow/keras-applications/vgg16/vgg16_weights_tf_dim_ordering_tf_kernels_notop.h5\n","58889256/58889256 [==============================] - 4s 0us/step\n","Model: \"sequential\"\n","_________________________________________________________________\n"," Layer (type)                Output Shape              Param #   \n","=================================================================\n"," vgg16 (Functional)          (None, 7, 7, 512)         14714688  \n","                                                                 \n"," batch_normalization (BatchN  (None, 7, 7, 512)        2048      \n"," ormalization)                                                   \n","                                                                 \n"," global_average_pooling2d (G  (None, 512)              0         \n"," lobalAveragePooling2D)                                          \n","                                                                 \n"," dropout (Dropout)           (None, 512)               0         \n","                                                                 \n"," dense (Dense)               (None, 1024)              525312    \n","                                                                 \n"," dropout_1 (Dropout)         (None, 1024)              0         \n","                                                                 \n"," dense_1 (Dense)             (None, 256)               262400    \n","                                                                 \n"," dropout_2 (Dropout)         (None, 256)               0         \n","                                                                 \n"," dense_2 (Dense)             (None, 70)                17990     \n","                                                                 \n","=================================================================\n","Total params: 15,522,438\n","Trainable params: 806,726\n","Non-trainable params: 14,715,712\n","_________________________________________________________________\n"]}],"source":["vgg16 = applications.vgg16.VGG16(include_top=False, weights='imagenet',
…
