…
  0           []                               \n","                                )]                                                                \n","                                                                                                  \n"," inception_v3_input (InputLayer  [(None, 299, 299, 3  0          []                               \n"," )                              )]                                                                \n","                                                                                                  \n"," global_average_pooling2d (Glob  (None, 512)         0           ['batch_normalization_94[0][0]'] \n"," alAveragePooling2D)                                                                              \n","                                                                                                  \n"," resnet50 (Functional)          (None, 7, 7, 2048)   23587712    ['resnet50_input[0][0]']         \n","                                                                                                  \n"," inception_v3 (Functional)      (None, 8, 8, 2048)   21802784    ['inception_v3_input[0][0]']     \n","                                                                                                  \n"," dropout (Dropout)              (None, 512)          0           ['global_average_pooling2d[0][0]'\n","                                                                 ]                                \n","                                                                                                  \n"," batch_normalization_95 (BatchN  (None, 7, 7, 2048)  8192        ['resnet50[0][0]']               \n"," ormalization)                                                                                    \n","                                                                                                  \n"," batch_normalization_96 (BatchN  (None, 8, 8, 2048)  8192        ['inception_v3[0][0]']           \n"," ormalization)                                                                                    \n","                                                                                                  \n"," dense (Dense)                  (None, 1024)         525312      ['dropout[0][0]']                \n","                                                                                                  \n"," global_average_pooling2d_1 (Gl  (None, 2048)        0           ['batch_normalization_95[0][0]'] \n"," obalAveragePooling2D)                                                                            \n","                                                                                                  \n"," global_average_pooling2d_2 (Gl  (None, 2048)        0           ['batch_normalization_96[0][0]'] \n"," obalAveragePooling2D)                                                                            \n","                                                                                                  \n"," dropout_1 (Dropout)            (None, 1024)         0           ['dense[0][0]']                  \n","                                                                                                  \n"," dropout_3 (Dropout)            (None, 2048)         0           ['global_average_pooling2d_1[0][0\n","                                                                 ]']                              \n","                                                                                                  \n"," dropout_5 (Dropout)            (None, 2048)         0           ['global_average_pooling2d_2[0][0\n","                                                                 ]']                              \n","                                                                                                  \n"," dense_1 (Dense)                (None, 256)          262400      ['dropout_1[0][0]']              \n","                                                                                                  \n"," dense_3 (Dense)                (None, 1024)         2098176     ['dropout_3[0][0]']              \n","                                                                                                  \n"," dense_5 (Dense)                (None, 1024)         2098176     ['dropout_5[0][0]']              \n","                                                                                                  \n"," dropout_2 (Dropout)            (None, 256)          0           ['dense_1[0][0]']                \n","                                                                                                  \n"," dropout_4 (Dropout)            (None, 1024)         0           ['dense_3[0][0]']                \n","                                                                                                  \n"," dropout_6 (Dropout)            (None, 1024)         0           ['dense_5[0][0]']                \n","                                                                                                  \n"," dense_2 (Dense)                (None, 70)           17990       ['dropout_2[0][0]']              \n","                                                                                                  \n"," dense_4 (Dense)                (None, 70)           71750       ['dropout_4[0][0]']              \n","                                                                                                  \n"," dense_6 (Dense)                (None, 70)           71750       ['dropout_6[0][0]']              \n","                                                                                                  \n"," concatenate_2 (Concatenate)    (None, 210)          0           ['dense_2[0][0]',                \n","                                                                  'dense_4[0][0]',                \n","                                                                  'dense_6[0][0]']                \n","                                                                                                  \n"," batch_normalization_97 (BatchN  (None, 210)         840         ['concatenate_2[0][0]']          \n"," ormalization)                                                                                    \n","                                                                                                  \n"," dense_7 (Dense)                (None, 1024)         216064      ['batch_normalization_97[0][0]'] \n","                                                                                                  \n"," dropout_7 (Dropout)            (None, 1024)         0           ['dense_7[0][0]']                \n","                                                                                                  \n"," dense_8 (Dense)                (None, 70)           71750       ['dropout_7[0][0]']              \n","                                                                                                  \n","==================================================================================================\n","Total params: 65,557,824\n","Trainable params: 5,443,004\n","Non-trainable params: 60,114,820\n","___________________________________________________
…
